AR Dash Widget/Public/ML Assets/tv-0-5.onnx (onnx, 400558 bytes, 86 tensors)

smooth.weight f4 [160, 1, 3, 3]
0	0xbd6b512a	-0.05745045
1	0x3d0e67b8	0.034766883
2	0x3e22b23e	0.15888306
3	0xbc1365cd	-0.008996439
4	0x3e51ced5	0.20489056
5	0xbe26ab69	-0.16276325
6	0xbdcc846a	-0.099861935
7	0xbe050f58	-0.12994134
8	0x3dac1743	0.08402874
9	0x000018f8	8.957e-42
10	0x047a5f63	2.9431158e-36
11	0x1d6f6c76	3.168746e-21
12	0x800025a1	-1.3499e-41
13	0x073e0426	1.429523e-34
14	0x9fe89c17	-9.851405e-20
15	0x00003644	1.9467e-41
16	0x8f2d9f61	-8.560254e-30
17	0xa51164fd	-1.2610961e-16
18	0x01b1f30e	6.53683e-38
19	0x01ca3f99	7.429434e-38
20	0x01d5733e	7.8409207e-38
21	0x01b22042	6.543316e-38
22	0x01ca49e5	7.4309114e-38
23	0x01d52b56	7.8306027e-38
24	0x01b267ff	6.55361e-38
25	0x01ca7b1e	7.4379745e-38
26	0x01d534b3	7.831946e-38
27	0xbc5c8d6b	-0.013461451
28	0x3d23657a	0.039891697
29	0xbd2bbabb	-0.041926127
30	0xbd93ede4	-0.072231084
31	0x3aa96f91	0.0012926926
32	0x3d14ca8e	0.036325984
33	0xbdc55af1	-0.09636486
34	0x3dfa1f03	0.12212946
35	0xbdf473ed	-0.119361736
36	0x3dc455a9	0.09586651
37	0xbdf2cc49	-0.118553706
38	0x3e696e49	0.22795977
39	0x3dfb73aa	0.122779205
40	0xbe2a8d95	-0.16655572
41	0xbdcead94	-0.10091701
42	0x3e0126ee	0.12612507
43	0xbe110f2c	-0.14165944
44	0x3e3de3e7	0.18543969
45	0x00020eb6	1.88948e-40
46	0x0002c798	2.55272e-40
47	0x00042a94	3.82616e-40
48	0x00020e82	1.88875e-40
49	0x0002c7ac	2.553e-40
50	0x00042691	3.81177e-40
51	0x00021129	1.89827e-40
52	0x0002cdab	2.57451e-40
53	0x0004240c	3.80273e-40
54	0x3c8d62ce	0.017259028
55	0x3cd8595c	0.026409797
56	0xbd7da138	-0.06192133
57	0x3d4cbe44	0.04998614
58	0xbd1196b7	-0.035544124
59	0xbc527b41	-0.012846769
60	0x3e2bc21e	0.16773269
61	0x3e4ce38a	0.20008674
62	0x3e83ad23	0.2571803
63	0xbe369e79	-0.1783389
64	0xbcf77fd9	-0.03021233
65	0x3e4a09ee	0.1973035
66	0x3e163ba0	0.14671183
67	0xbe741bda	-0.2383875
68	0xba906f7a	-0.0011019551
69	0x3de30d65	0.11086539
70	0xbe119df4	-0.1422041
71	0xbe22b875	-0.15890677
72	0x82a2f2a8	-2.3943038e-37
73	0x03b065f5	1.03677585e-36
74	0x039d94d7	9.261803e-37
75	0x82a2f84a	-2.3946272e-37
76	0x03b069ff	1.0368686e-36
77	0x039d9b50	9.263289e-37
78	0x82a2f34f	-2.3943413e-37
79	0x03b0699a	1.0368595e-36
80	0x039d9aba	9.263154e-37
81	0x00004fe3	2.8658e-41
82	0x8000aa45	-6.1081e-41
83	0x00009322	5.2781e-41
84	0x0000bb60	6.7217e-41
85	0x0000715c	4.0666e-41
86	0x0000b77d	6.5823e-41
87	0x00004f35	2.8414e-41
88	0x80004eed	-2.8313e-41
89	0x0000b87f	6.6185e-41
90	0x3dfd526a	0.12369235
91	0xbd83c13c	-0.06433341
92	0x3e745d45	0.23863705
93	0x3e888454	0.26663458
94	0xbe78368a	-0.24239555
95	0xbdab52aa	-0.08365376
96	0xbe1b1b04	-0.15147024
97	0x3e57d8b9	0.21078767
98	0x3e0ab52a	0.13545671
99	0x3e39833c	0.18116468
100	0xbd8c3bf5	-0.068473734
101	0x3ea5ac2a	0.32357913
102	0x3d3c93f9	0.046039555
103	0x3d165471	0.036701623
104	0xbd191451	-0.03737289
105	0x3dfa3e64	0.12218931
106	0x3e429da3	0.19005446
107	0x3cbd64c1	0.023119332
108	0x3d5f8602	0.05457116
109	0xbd03d6cf	-0.03218728
110	0x3e5fc1a5	0.21851213
111	0xbe78ff6a	-0.24316183
112	0xbd088749	-0.033332143
113	0x3e6f3a94	0.2336219
114	0xbe70a38c	-0.23499888
115	0x3e416834	0.18887407
116	0x3e93683c	0.28790462
117	0x3e67787f	0.2260456
118	0x3e572832	0.21011427
119	0xbe3653a7	-0.17805348
120	0xbc8b53b2	-0.017007682
121	0x3e4acc84	0.19804579
122	0x3e9d6348	0.30739808
123	0xbe3970da	-0.18109456
124	0x3de1fca9	0.11034519
125	0xbe26e404	-0.16297919
126	0x3e6e200b	0.23254411
127	0xbd91ee4f	-0.07125532
128	0x3ce2edfd	0.027701372
129	0xbe2e71da	-0.17035618
130	0xbd09461c	-0.033514127
131	0xbdb357a6	-0.08756952
132	0xbc95fdef	-0.018309562
133	0xbd3dee6c	-0.046369955
134	0x3e513fd7	0.20434509
135	0xbe08d934	-0.13364106
136	0xbd4c3d3c	-0.049863085
137	0x3dbde8ac	0.09272894
138	0xbdb7ab82	-0.089682594
139	0xbc1b2b29	-0.009470739
140	0x3db0fbed	0.08641801
141	0xbd493091	-0.049118582
142	0x3d2fa858	0.042885154
143	0x3dd06b8f	0.10176765
144	0x00236148	3.24914e-39
145	0x002b037d	3.950178e-39
146	0x0021559c	3.061282e-39
147	0x002ad89a	3.934793e-39
148	0x0030bc18	4.475579e-39
149	0x00277a67	3.625494e-39
150	0x0030a366	4.46672e-39
151	0x00381fd7	5.15421e-39
152	0x002fe361	4.397837e-39
153	0x3dd28948	0.102800906
154	0x3e2daf11	0.16961314
155	0x3ddbd916	0.10734765
156	0xbe64770f	-0.22311042
157	0xbe5c8c8b	-0.21537988
158	0x3d39e81f	0.045387384
159	0xbe4446dc	-0.19167656
160	0xbd296934	-0.041360095
161	0xbe49b2d5	-0.19697125
162	0xbd7d5f2f	-0.061858352
163	0x3e04f3a5	0.12983568
164	0xbd1f1881	-0.038841728
165	0x3dcaac59	0.09896154
166	0xbd80c6ac	-0.06287894
167	0xbde996af	-0.11405694
168	0x3dc9cb5d	0.098532416
169	0xbd8db661	-0.06919552
170	0xbe41af28	-0.18914473
171	0x3d8556ef	0.06510722
172	0x3ceebfdb	0.029144218
173	0xbc16aca6	-0.009196436
174	0x3d992914	0.07478538
175	0x3d119a21	0.03554738
176	0x3db550cc	0.088533014
177	0x3ce7b7e8	0.028285936
178	0xbbd87509	-0.0066057486
179	0xbb8616d9	-0.004092079
180	0x3ea8a2e3	0.32936773
181	0xbe1d585d	-0.15365739
182	0xbd6f6dc9	-0.05845431
183	0x3c82cac5	0.015965829
184	0xbdce5e86	-0.10076623
185	0xbe984707	-0.2974169
186	0x3e9e612b	0.30933508
187	0xbe413636	-0.18868336
188	0x3ce2bc59	0.027677702
189	0xbe858a59	-0.26082113
190	0xbe654189	-0.22388281
191	0x3e3620c5	0.17785938
192	0x3e6c8dc8	0.2310096
193	0x3e7a4096	0.244387
194	0x3e95b90b	0.2924274
195	0xbe005796	-0.12533411
196	0xbe57c041	-0.21069433
197	0x3d59d9aa	0.053186096
198	0xbdb77040	-0.08956957
199	0x3c3e6238	0.011620097
200	0xbe12527d	-0.1428928
201	0xbd2d62a9	-0.042330418
202	0xbd98348f	-0.074319
203	0x3dc45c81	0.09587956
204	0x3e07a136	0.13245091
205	0x3e155a89	0.14585318
206	0xbd30d099	-0.043167684
207	0xbe7eeb55	-0.2489446
208	0x3e953040	0.29138374
209	0xbe3b19b2	-0.1827152
210	0x3d781c59	0.06057391
211	0x3e199680	0.14998817
212	0x3e7f5cdc	0.24937767
213	0x3da01403	0.07816317
214	0xbd8c35a4	-0.06846169
215	0xbc378ad1	-0.01120253
216	0x8000a70d	-5.9927e-41
217	0x800097b7	-5.4425e-41
218	0x8000c72c	-7.145e-41
219	0x80004d1f	-2.7666e-41
220	0x0000a838	6.0346e-41
221	0x80009845	-5.4624e-41
222	0x800097fa	-5.4519e-41
223	0x8000b412	-6.4597e-41
224	0x8000617e	-3.4974e-41
225	0x807061e6	-1.0320695e-38
226	0x8046a427	-6.487371e-39
227	0x8051504a	-7.467477e-39
228	0x807081af	-1.0332097e-38
229	0x80463a7e	-6.449468e-39
230	0x805147b5	-7.464399e-39
231	0x80705a5f	-1.0317995e-38
232	0x80463dfe	-6.450723e-39
233	0x805144ed	-7.463401e-39
234	0xbcfc4e4d	-0.030799055
235	0xbe246699	-0.16054763
236	0x3e920118	0.2851646
237	0xbe3c126e	-0.18366405
238	0x3d157565	0.03648891
239	0x3e3db485	0.18525894
240	0x3e11a108	0.14221585
241	0x3eb3b812	0.35101372
242	0xbcfa519a	-0.030556489
243	0x3ea7b3cf	0.3275437
244	0x3e8af409	0.2713931
245	0x3ea8b52c	0.32950723
246	0x3d50204a	0.050812043
247	0xbd4a3615	-0.049367983
248	0x3d0e2d65	0.03471126
249	0x3ddefdf7	0.10888284
250	0x3dcad020	0.09902978
251	0x3e0c7793	0.13717489
252	0x8004c038	-4.36297e-40
253	0x800fd84b	-1.455124e-39
254	0x80188831	-2.252908e-39
255	0x8004c248	-4.37037e-40

smooth.bias f4 [160]
0	0xbb60ef0b	-0.0034322168
1	0x3de44b9c	0.11147234
2	0x37a42abb	1.9570221e-05
3	0x3ce8f292	0.028435979
4	0xbb2f0373	-0.0026704937
5	0x377a6cdd	1.4926508e-05
6	0xbaa609d9	-0.001266773
7	0x3db600de	0.08886884
8	0xb66a9e43	-3.4960838e-06
9	0x3db3c3d9	0.08777589
10	0xbcc9334c	-0.024560593
11	0xbdce0e8d	-0.10061369
12	0x3db8d93a	0.09025808
13	0xbe3f7422	-0.18696645
14	0xbbc63332	-0.0060485834
15	0x39b93254	0.00035323447
16	0xb726deac	-9.946216e-06
17	0x3d5127cf	0.051063355
18	0x3d3bb121	0.04582322
19	0xbc27b7d5	-0.0102367
20	0x3d73ae50	0.05949241
21	0xbe44e36f	-0.19227384
22	0x3b04e9ae	0.0020280886
23	0x3d0bdaed	0.03414433
24	0xbb5f8a88	-0.003410967
25	0x37a8209e	2.004235e-05
26	0x3d858de2	0.065212026
27	0x39011236	0.00012309183
28	0x37d212ee	2.5042766e-05
29	0xb78b06ba	-1.6573224e-05
30	0x3b860a63	0.0040905937
31	0xbe0c3bd8	-0.13694704
32	0x3aae955e	0.0013319661
33	0x37994cd7	1.8274803e-05
34	0xbc6b6c76	-0.014369121
35	0xbe308b57	-0.17240654
36	0xbd82a146	-0.06378417
37	0xbb36e0e8	-0.002790505
38	0xbd35d997	-0.044396963
39	0xb9d44df9	-0.00040493885
40	0x3d2e6737	0.042578902
41	0xbd27c96f	-0.040963586
42	0x3675b0a8	3.6610672e-06
43	0xbd8a9350	-0.06766379
44	0xbbdd4403	-0.0067524924
45	0xbb162b17	-0.0022913867
46	0xbbe42909	-0.0069628996
47	0x382009fd	3.8156275e-05
48	0x3d6c94ea	0.057759203
49	0xbc9c8436	-0.019106012
50	0xb6082bbd	-2.0291038e-06
51	0x3c9eddd1	0.01939288
52	0xbb9774de	-0.004622086
53	0xba7d48e5	-0.0009662046
54	0x3a4a79bd	0.0007723829
55	0xbd94af19	-0.0725996
56	0x3c4c63dd	0.012474981
57	0xbcbacdb3	-0.022803163
58	0xbb219f58	-0.0024661627
59	0xbe090a0d	-0.1338274
60	0x362362de	2.434644e-06
61	0x3b8eeead	0.0043619485
62	0xb8008124	-3.063785e-05
63	0x3740da2e	1.1494891e-05
64	0x3b0b307e	0.002123862
65	0x3b4b508d	0.0031023354
66	0x3da527e7	0.080642514
67	0xbb4825cd	-0.003054011
68	0xb6b1f5d7	-5.3036306e-06
69	0xba8f7911	-0.0010946115
70	0xba8ad24f	-0.0010591241
71	0x3b3b8bc1	0.0028617235
72	0x3d89b2aa	0.067235306
73	0x3b54f4c4	0.0032494524
74	0xba64669c	-0.00087128
75	0x3d3751ad	0.044755626
76	0x3990ff4b	0.00027656028
77	0xb809497a	-3.2731776e-05
78	0x3552ad9a	7.848372e-07
79	0xbd8a0c16	-0.067405865
80	0xbdbc3ef5	-0.091916956
81	0xb5088909	-5.086336e-07
82	0x3c3ca0e3	0.011512968
83	0x3dbc55ff	0.0919609
84	0x3bae2316	0.005314241
85	0xbaea6b20	-0.0017884709
86	0xbadb1ce6	-0.0016716986
87	0x3af7ac28	0.0018895911
88	0xb4a227ae	-3.0203722e-07
89	0xbd9c092c	-0.07618937
90	0xbcb01d10	-0.021498233
91	0xb6d96749	-6.479128e-06
92	0xbc9c3796	-0.019069474
93	0x3b435c87	0.002980979
94	0x3d5eea42	0.054422624
95	0xbc0ed7ac	-0.008718412
96	0x3b853187	0.004064742
97	0x3e115273	0.14191608
98	0x378aec9c	1.6561062e-05
99	0xbba615c2	-0.0050685117
100	0x3b85c1ae	0.0040819263
101	0x36b1d1d9	5.2994405e-06
102	0xb8149f32	-3.5434212e-05
103	0x35ff4f20	1.9022009e-06
104	0xb6ea9338	-6.990882e-06
105	0x36326e29	2.6588189e-06
106	0xbbc4d0e2	-0.006006346
107	0x3ac26546	0.0014831207
108	0x3c15c7c1	0.009141863
109	0xb9c892f6	-0.00038256467
110	0xb5a5b77f	-1.2346862e-06
111	0x3e814746	0.2524969
112	0xb79a611d	-1.8403452e-05
113	0xbb3475f8	-0.0027536135
114	0x3bc029ff	0.0058643813
115	0x35ee78c0	1.7767525e-06
116	0xbbe4a25e	-0.0069773635
117	0xb794631b	-1.7689124e-05
118	0xb797fcb4	-1.8118277e-05
119	0x368d79ed	4.2163215e-06
120	0x3ad6be53	0.0016383625
121	0x3d872546	0.06598906
122	0xb816f05a	-3.598663e-05
123	0x3c2538f2	0.010084378
124	0xbb58b5cc	-0.0033067344
125	0x3aa34498	0.0012456356
126	0x3d226bd6	0.03965362
127	0xbb09f854	-0.0021052556
128	0x3bcabb77	0.0061868983
129	0x395085fc	0.00019886339
130	0x3ba62d7c	0.00507134
131	0x3d3da97e	0.04630422
132	0xbdc5e960	-0.096636534
133	0x3b5b69c3	0.0033479787
134	0xbd81a249	-0.063297816
135	0xbb9e8a2f	-0.00483825
136	0x3c0d0d4f	0.00860913
137	0x3d2cb0b4	0.042160705
138	0xbca2ad74	-0.0198581
139	0xbaf7697b	-0.001887604
140	0xba0e7afb	-0.00054351956
141	0x3b6a960b	0.0035795
142	0x3b03a2cc	0.0020086048
143	0x36bb6003	5.5842115e-06
144	0x3b590404	0.0033113966
145	0x3dfc948e	0.12333022
146	0xba7a83f1	-0.0009556404
147	0x3602651e	1.9430368e-06
148	0x3de70ce6	0.11281757
149	0x379b7784	1.8533094e-05
150	0xba3a7b35	-0.0007113696
151	0xbdb2964f	-0.08720075
152	0xbd34db75	-0.044154603
153	0xbccf2c6a	-0.025289733
154	0xbd8e47bf	-0.06947278
155	0xbb3df936	-0.0028987653
156	0xbe77a00f	-0.24182151
157	0x38fd7730	0.000120861805
158	0xbdd44940	-0.10365534
159	0x3be87e37	0.007095124

cls_scores_out.0.weight f4 [1, 160, 3, 3]
0	0x3d630de7	0.05543318
1	0xbd839e65	-0.06426696
2	0x3dfac503	0.12244608
3	0xbcff5da0	-0.031172574
4	0xbe1d03cc	-0.1533348
5	0xbd028adc	-0.031870708
6	0x3d162562	0.036656745
7	0xbc908de7	-0.01764579
8	0x3db4f53a	0.08835836
9	0xbd9362af	-0.07196557
10	0xbd8faa63	-0.070149206
11	0xbcbe05cb	-0.023196122
12	0x3c1a270c	0.009408724
13	0xbdad52b0	-0.08463037
14	0xbd79e28c	-0.061007068
15	0xbdb5eacb	-0.08882674
16	0xbcbcc090	-0.02304104
17	0xbd8c89bb	-0.068622075
18	0x38c51b42	9.398769e-05
19	0x38c8a7d9	9.568007e-05
20	0x39742233	0.00023282394
21	0x38c531c6	9.402963e-05
22	0x38c8da90	9.5774536e-05
23	0x39740348	0.00023270876
24	0x38c4c133	9.3819945e-05
25	0x38c82324	9.5432886e-05
26	0x39743030	0.00023287605
27	0xbd419e94	-0.047270373
28	0xbcb4e311	-0.02208093
29	0x3daf08eb	0.08546623
30	0xbd0e57d9	-0.034751747
31	0xbd360b17	-0.04444417
32	0x3d8108af	0.063004844
33	0x3ce7282b	0.028217396
34	0xbd6358eb	-0.05550472
35	0x3d99c380	0.07507992
36	0xbe2a0830	-0.16604686
37	0x3e303ef2	0.17211512
38	0xbe5f3f35	-0.21801455
39	0xbe090278	-0.13379848
40	0x3ea4445a	0.32083398
41	0xbdaac4d1	-0.08338321
42	0xbe483206	-0.19550332
43	0x3e754bec	0.23954743
44	0xbe5478a2	-0.20749143
45	0xb8f73e26	-0.00011789454
46	0xb8d833a9	-0.00010309305
47	0xb88d6ff5	-6.7442576e-05
48	0xb8f0bcc6	-0.000114792536
49	0xb8e261c7	-0.00010794732
50	0xb894a3b9	-7.087686e-05
51	0xb8f50dd0	-0.00011685083
52	0xb8e3f259	-0.00010869344
53	0xb8939043	-7.036377e-05
54	0x3c933f79	0.017974602
55	0x3ce9ac4d	0.028524542
56	0x3bb97406	0.005659583
57	0xbd78e444	-0.060764566
58	0xbc2b916b	-0.010471682
59	0xbdaf8494	-0.08570209
60	0xbe6c24eb	-0.23060958
61	0xbe57d5ab	-0.21077602
62	0xbe63d378	-0.22248638
63	0x3da86c07	0.082237296
64	0x3dc14595	0.094371
65	0x3db11e29	0.08648331
66	0xbd95cb17	-0.07314127
67	0xbd078db8	-0.033094138
68	0xbd08f73b	-0.033438902
69	0xbc841562	-0.016123477
70	0xbd3f1997	-0.046655264
71	0xbc8cefef	-0.017204253
72	0xbc040ab2	-0.008059191
73	0x3c11e885	0.008905535
74	0xbc8d38cb	-0.017238995
75	0x3cb45706	0.022014152
76	0xbc257367	-0.010098315
77	0x3c5689a5	0.01309434
78	0xbbfa1630	-0.0076320395
79	0xbb84184a	-0.004031216
80	0xbca86032	-0.020553682
81	0xbd6e826a	-0.05822984
82	0xbdb10389	-0.086432524
83	0xbd2b3d2c	-0.041806385
84	0xbd356cee	-0.044293337
85	0xbd074961	-0.033028964
86	0xbd5da65b	-0.054113727
87	0xbd55b619	-0.052175615
88	0x3b3b1dda	0.0028551728
89	0xbd09bb81	-0.033626083
90	0xbddad2ac	-0.10684714
91	0x3c143ead	0.009048146
92	0xbd906758	-0.07050961
93	0xbe1e8bfc	-0.15483087
94	0xbd97dbc3	-0.07414963
95	0xbe641403	-0.22273259
96	0x3d0a7d8d	0.03381114
97	0xbdbb8484	-0.09156135
98	0xbe971daa	-0.2951482
99	0x3cac074c	0.020999573
100	0xbd392572	-0.045201726
101	0xbde30ed7	-0.11086815
102	0xbe0c86ff	-0.13723372
103	0xbe4d4154	-0.20044452
104	0xbe3bbd49	-0.18333925
105	0x3ddf3195	0.10898129
106	0xbdd3acd5	-0.103356995
107	0xbe10c37c	-0.14137071
108	0xbd23d347	-0.03999641
109	0xbd1c573f	-0.03816914
110	0xbe492f95	-0.19647057
111	0x3cb24d88	0.021765485
112	0xbd30d671	-0.043173257
113	0xbe920a31	-0.285234
114	0xbc65660c	-0.014001381
115	0xbdda4346	-0.10657363
116	0xbe806762	-0.25078875
117	0xbdb03cee	-0.086053714
118	0xbda15ded	-0.07879243
119	0xbdde3f43	-0.1085191
120	0xbd849568	-0.064738095
121	0x3ca2f705	0.019893179
122	0xbdb1e4be	-0.08686207
123	0x3c9282ae	0.017884579
124	0x3e6d9593	0.2320159
125	0x3e0aadf7	0.13542925
126	0x3e2dff84	0.16992003
127	0x3e2ae87b	0.16690247
128	0x3d9c4d9f	0.076319925
129	0x3e078128	0.13232863
130	0x3cdb32b7	0.026757581
131	0xbd8ec582	-0.069712654
132	0xbe12b768	-0.14327776
133	0xbe39bf24	-0.1813932
134	0xbe44e287	-0.19227038
135	0x3df42c72	0.1192254
136	0x3c9b90e1	0.018989982
137	0xbe05a14c	-0.13049811
138	0x3de7e1fc	0.113224
139	0x3c705c96	0.014670512
140	0xbdc1945a	-0.09452124
141	0x3d999898	0.07499808
142	0xbc3a2b72	-0.011362897
143	0xbe0f72e1	-0.14008667
144	0x39300846	0.0001678775
145	0x392e26d8	0.00016608404
146	0x392dded1	0.00016581571
147	0x392372ae	0.00015587613
148	0x39418831	0.0001845665
149	0x392adea5	0.00016295405
150	0x3935270e	0.00017276054
151	0x39267cb1	0.00015877445
152	0x39274fdb	0.0001595611
153	0x3e1fd5da	0.15608922
154	0xbde1054e	-0.1098734
155	0xbe802da4	-0.2503482
156	0x3e571a22	0.21006063
157	0x3d18b222	0.037279256
158	0x3c867c07	0.016416563
159	0x3e35e1f8	0.17761981
160	0x3e2cd6de	0.1687884
161	0x3e119eb4	0.14220697
162	0x3d55320b	0.052049678
163	0xbc163356	-0.009167513
164	0x3e2b3298	0.16718519
165	0x3d0e0716	0.034674726
166	0x3aa5f019	0.0012660056
167	0xbd564955	-0.05231603
168	0x3bb3a44d	0.0054822327
169	0xbd50e391	-0.050998274
170	0xbe4f3641	-0.2023554
171	0x3b958155	0.0045625367
172	0xbb5d4214	-0.003376131
173	0xbbaeb48a	-0.0053315805
174	0x3ad53872	0.0016267432
175	0xbbb39077	-0.005479868
176	0xb8d01caf	-9.9235556e-05
177	0xbd33dee9	-0.043913756
178	0x3c181c4a	0.009284088
179	0x3d1cd43e	0.038288347
180	0xbe3e8ef2	-0.18609217
181	0xbe139693	-0.14412908
182	0xbdc5f9db	-0.09666797
183	0xbe0d55a0	-0.13802195
184	0xbe0d6573	-0.13808231
185	0xbdc61f19	-0.096739
186	0xbe09f19f	-0.13471077
187	0xbd04de60	-0.032438636
188	0xbdbac17c	-0.091189355
189	0xbdb3a3e0	-0.08771491
190	0x3d81fc50	0.06346953
191	0xbe3f96ae	-0.18709823
192	0x3ce07f05	0.027404318
193	0x3e817c18	0.2528999
194	0xbc7901c5	-0.015198176
195	0x3d743bb6	0.059627257
196	0x3eadd71c	0.33953178
197	0xbdb796cc	-0.08964309
198	0x3d5ddb54	0.054164246
199	0x3d465042	0.048416384
200	0x3d579d90	0.052640498
201	0x3cdb8d35	0.026800731
202	0x3cea736e	0.028619494
203	0x3c62cede	0.013843266
204	0xbdc333fd	-0.095314
205	0xbda5ca37	-0.0809521
206	0xbdc9b180	-0.098483086
207	0x3d6377e9	0.055534277
208	0xbdd1d2ad	-0.10245261
209	0xbe1696ef	-0.14706014
210	0x3d0f9a74	0.035059407
211	0xbdef4fa7	-0.11685114
212	0xbe1f52fa	-0.15558997
213	0xbc83f3dc	-0.016107492
214	0xbe26722d	-0.16254492
215	0xbdb643df	-0.08899664
216	0xbb8fefff	-0.0043926234
217	0x3d8056d7	0.062665634
218	0xbbff80dd	-0.007797344
219	0x3d2578d7	0.040398445
220	0xbc20a84d	-0.009805751
221	0x3d62594c	0.05526094
222	0x3c4c5668	0.012471773
223	0x3c388b39	0.011263662
224	0x3d225844	0.039634958
225	0xb9080c14	-0.0001297447
226	0xb8f9a801	-0.000119045384
227	0xb97b54f9	-0.0002396888
228	0xb9033934	-0.00012514443
229	0xb8ff2071	-0.0001216539
230	0xb978a722	-0.00023713385
231	0xb901ebea	-0.00012390284
232	0xb8f51999	-0.00011687278
233	0xb97d9e16	-0.00024186852
234	0xbc65af8c	-0.014018904
235	0xbe6f697a	-0.2338008
236	0xbda92d81	-0.08260632
237	0xbd93c94c	-0.07216129
238	0xbe5a4431	-0.21315075
239	0xbe3ccc2b	-0.18437259
240	0xbe1444bd	-0.14479347
241	0xbe85e8d6	-0.26154202
242	0xbd865fdd	-0.06561253
243	0xbe9834f4	-0.297279
244	0xbe406e1e	-0.18792006
245	0xbe95b805	-0.29241958
246	0x3bcbf572	0.0062243277
247	0x3da00804	0.07814029
248	0xbd5fa505	-0.054600734
249	0xbe078c2b	-0.13237064
250	0xb9582bfc	-0.0002061575
251	0xbd9ed639	-0.077557035
252	0xb954a692	-0.00020279948
253	0xb9465148	-0.00018913031
254	0xb9287bff	-0.0001606792
255	0xb953982e	-0.0002017922

loc_out.weight f4 [4, 160, 3, 3]
0	0xbb109720	-0.0022062734
1	0x3b15906c	0.0022821678
2	0x3b68df50	0.0035533495
3	0x3bf1c2e6	0.00737797
4	0xbb8d2e0d	-0.004308468
5	0xbbed59c7	-0.0072433683
6	0x389436e9	7.067418e-05
7	0x3bd3feed	0.0064695985
8	0xbc34b01c	-0.011028316
9	0xbd26bb0d	-0.04070573
10	0x3cf0dfeb	0.029403647
11	0xbc857b83	-0.016294247
12	0xbc1cf44b	-0.009579728
13	0x3c7b6561	0.015343995
14	0x3cf10282	0.029420141
15	0xbcd2e6d6	-0.025744837
16	0xbc83eaad	-0.016103113
17	0xbca3f234	-0.020012952
18	0x3846c904	4.739409e-05
19	0xb87a12d7	-5.962219e-05
20	0x38c50d3d	9.396158e-05
21	0x38172360	3.603415e-05
22	0xb8310d50	-4.2212487e-05
23	0x38bf453a	9.120484e-05
24	0x382eae4a	4.1647152e-05
25	0xb8174277	-3.6063106e-05
26	0x38b7e7b7	8.76928e-05
27	0xbb0d9cc1	-0.0021608325
28	0x3b3db1f8	0.002894519
29	0xbc542117	-0.012947342
30	0xbb852de9	-0.004064311
31	0x3c8bb7e2	0.017055456
32	0x3a075aaf	0.0005163354
33	0x3c300568	0.010743476
34	0x3b0dfcc1	0.0021665546
35	0xbc079db2	-0.008277344
36	0xba9b0c6f	-0.0011829267
37	0x3bb2e402	0.0054593096
38	0xbaf6cae4	-0.0018828777
39	0x3ab82901	0.0014050306
40	0xbc199085	-0.009372835
41	0x3bbf660d	0.005841023
42	0xbc7422a7	-0.01490084
43	0x382f5404	4.1801497e-05
44	0xba6f4185	-0.00091268896
45	0xb9161f88	-0.00014316861
46	0xb8ef000e	-0.00011396418
47	0xb9a45c06	-0.0003134908
48	0x3919dfbd	0.00014674566
49	0x37c4b102	2.3447446e-05
50	0x39b0eee5	0.00033747326
51	0xb903b395	-0.00012560033
52	0xb8658616	-5.4722732e-05
53	0xb92e5655	-0.00016626094
54	0xba708945	-0.0009175728
55	0xb99a1776	-0.0002939065
56	0x3af580b0	0.0018730368
57	0xba4a1d64	-0.0007710068
58	0x3b74e007	0.0037364976
59	0xbb24fd69	-0.0025175458
60	0x3ac01da6	0.0014657273
61	0x39c923c9	0.0003836437
62	0xbb0e8fdd	-0.002175323
63	0x3b21e681	0.0024704041
64	0xbbdc9ec0	-0.0067327917
65	0x3bc179f7	0.005904432
66	0x3c254252	0.010086613
67	0x3c146937	0.009058288
68	0xba04ef9f	-0.0005071107
69	0xbb2ac8b8	-0.002605958
70	0x398b0f72	0.00026523654
71	0xb9fbb808	-0.00048011565
72	0x3a400418	0.0007324829
73	0xbd105d9c	-0.035245523
74	0x3c14fa06	0.009092813
75	0x3cbf93c4	0.02338589
76	0x3c670d57	0.014102302
77	0xbccec372	-0.02523968
78	0x3ce3219b	0.027725985
79	0x3c61ad1f	0.013774185
80	0xbcd3f05f	-0.025871454
81	0x3ca50186	0.020142328
82	0xbcee7d05	-0.029112348
83	0xbd58f684	-0.05296947
84	0x3ca13f12	0.019683395
85	0x3d0172f4	0.03160377
86	0x3d3d8ca5	0.046276707
87	0xbc99fc71	-0.018797131
88	0xbd87b601	-0.06626511
89	0x3d5477a7	0.051871922
90	0xbab7cffe	-0.0014023778
91	0x3acba955	0.0015538136
92	0xbac1c9dc	-0.001478489
93	0xba868a78	-0.0010264656
94	0x39ca77b5	0.0003861763
95	0x3a6994ff	0.0008910447
96	0xbb40be5c	-0.0029410338
97	0x3b8545b6	0.004067148
98	0xba088b47	-0.0005208742
99	0x39853129	0.00025404364
100	0x3adc3b60	0.0016802363
101	0xba6150f8	-0.0008595134
102	0xbaa76690	-0.0012771655
103	0x3a7a1321	0.00095395936
104	0xbaf146f6	-0.0018407989
105	0xbab53a2e	-0.0013826543
106	0x3c04e27e	0.008110641
107	0xbb86408c	-0.00409705
108	0xbb35be87	-0.0027731971
109	0x3be04733	0.006844425
110	0xbb713f89	-0.0036811552
111	0x3b707e71	0.0036696459
112	0xbbb16688	-0.005413834
113	0x3bc950e2	0.006143675
114	0xbb48230d	-0.003053847
115	0x3be1d3e6	0.0068917153
116	0xbbde6150	-0.006786503
117	0x3bad452a	0.005287786
118	0x3a181bf9	0.0005802508
119	0xbb81996b	-0.0039550564
120	0x3a8b1bcb	0.0010613141
121	0x3a97ce20	0.0011581816
122	0x38e71c48	0.00011020206
123	0xba227c39	-0.000619832
124	0xbae53b95	-0.001748907
125	0x3b829243	0.003984721
126	0xbb45ef27	-0.003020236
127	0xbac07296	-0.0014682587
128	0x3bd555e4	0.006510483
129	0xbb51dc1d	-0.0032022067
130	0x3b0aedb3	0.0021198809
131	0x3afba4b2	0.0019198863
132	0x3974f3e9	0.00023360517
133	0xbb1ab75c	-0.0023607826
134	0x3b93a2b2	0.004505479
135	0xbb8a0ce5	-0.004212963
136	0x3c3298fb	0.010900731
137	0xba989372	-0.0011640622
138	0xbb334b37	-0.0027358064
139	0xbc66c9a7	-0.014086164
140	0x3b380e9c	0.002808488
141	0x3c104c11	0.008807198
142	0xbb3bc397	-0.0028650516
143	0x3b9ee359	0.0048488793
144	0x3a4e5956	0.00078715885
145	0xb91cbc33	-0.00014947429
146	0x390a1df4	0.00013171864
147	0xba404645	-0.000733469
148	0xba049288	-0.0005057235
149	0x3a46b59c	0.00075801625
150	0x395d46c9	0.00021102572
151	0x39cd159d	0.0003911675
152	0xb99afb18	-0.00029560248
153	0x3b9b35c6	0.004736635
154	0xb95f1152	-0.0002127339
155	0x3a2a2bf5	0.00064915355
156	0xbbdd4863	-0.006753014
157	0x3c0e644a	0.008690903
158	0xba4d3c8d	-0.0007829152
159	0x39727f08	0.00023126241
160	0x3a4d3d61	0.00078292756
161	0xba427a3d	-0.00074187276
162	0x3b71d139	0.0036898388
163	0xbb71f02d	-0.0036916838
164	0x3b167787	0.0022959427
165	0xbb7ca93a	-0.0038553015
166	0x3bc7a46c	0.0060925987
167	0xbb8dccae	-0.0043273782
168	0x3b396d86	0.002829404
169	0xbb6b505b	-0.003590605
170	0x3b8abf9a	0.0042342665
171	0x3bb97bb9	0.005660501
172	0xbb77a2e3	-0.0037786297
173	0x3ab5b944	0.0013864418
174	0xbc1d8471	-0.009614096
175	0xbc02d1b8	-0.007984571
176	0x3ba3c7dc	0.0049981903
177	0x3b140fe9	0.002259249
178	0xbae628ec	-0.0017559803
179	0x3c0b2906	0.0084936675
180	0x3b41041f	0.002945192
181	0xbbd37076	-0.0064526154
182	0xba85ed37	-0.001021779
183	0xbb90558b	-0.0044047288
184	0x3bc886e5	0.0061195963
185	0xbab6ba7e	-0.0013941077
186	0x3a8e0a6d	0.0010836847
187	0xbad813a1	-0.0016485342
188	0xbb168c6b	-0.002297188
189	0xbaaf5f23	-0.0013379793
190	0x3b0dd0a2	0.0021639247
191	0xb96deda3	-0.00022690608
192	0xbb447d46	-0.0029981895
193	0x3ab9a04d	0.0014162153
194	0x3b00445a	0.001957199
195	0xbb67d384	-0.0035373876
196	0x3addc6c9	0.0016920205
197	0x3aace023	0.0013189357
198	0xbc0186e6	-0.007905697
199	0xb9bad515	-0.00035635443
200	0x3b45e1a3	0.0030194304
201	0x3ae1479c	0.0017187479
202	0x3bbfabb8	0.005849328
203	0xbb8e56d5	-0.0043438473
204	0xbbc2f1d2	-0.0059492374
205	0x3c27d0cf	0.010242655
206	0xbc2e824b	-0.010651181
207	0x3bbd4841	0.0057764356
208	0x3ade4eb2	0.0016960709
209	0xbb48b7bd	-0.0030627095
210	0x3a57f826	0.0008238576
211	0x38198631	3.6603018e-05
212	0x3a23a6fc	0.0006242839
213	0x3b8d1f2a	0.0043066936
214	0x3b7f3329	0.0038940406
215	0xbb8f3b17	-0.0043710577
216	0x3d133d47	0.03594711
217	0x3c012254	0.00788172
218	0xbd4f7ac0	-0.050654173
219	0xbc83bae2	-0.016080324
220	0xba9dbbb6	-0.0012034092
221	0xbc0d4646	-0.0086227115
222	0x3cfb853e	0.030703183
223	0x3c1bce3f	0.009509622
224	0x3cd91f3a	0.026504148
225	0xb9a5d7ab	-0.00031631938
226	0x39007300	0.00012249872
227	0x3890a310	6.896828e-05
228	0xb98dbe79	-0.0002703553
229	0xb9881da4	-0.00025962025
230	0x391dfbf7	0.00015066551
231	0x376ae255	1.4000184e-05
232	0xb7921565	-1.7414519e-05
233	0xb94a606e	-0.00019300144
234	0x3aa14c8d	0.0012306139
235	0xbb0dba49	-0.0021625927
236	0xb71b9769	-9.273973e-06
237	0x3a20884c	0.00061238254
238	0x39066247	0.00012815847
239	0xb8a65c86	-7.932731e-05
240	0x3b14887d	0.0022664361
241	0xba9d5566	-0.00120036
242	0x3a76ef73	0.0009419836
243	0x3c140cfc	0.009036299
244	0xbc1fad06	-0.009745842
245	0x3b6ee6d4	0.0036453502
246	0x3b0f4461	0.0021860825
247	0x3c52c139	0.012863451
248	0xbc726c22	-0.014796289
249	0x3b444fee	0.0029954868
250	0xbc17aa3c	-0.009256896
251	0x3c1048b5	0.008806397
252	0xb999bf67	-0.0002932504
253	0xba24fe9c	-0.0006294043
254	0x37478222	1.1891623e-05
255	0x387d6deb	6.042227e-05

loc_out.bias f4 [4]
0	0x3c4f9a21	0.012671025
1	0x3a40fe1a	0.0007362083
2	0x3d3f5201	0.046709064
3	0x3c97e994	0.018543996

onnx::Conv_372 f4 [16, 3, 3, 3]
0	0x00000000	0.0
1	0x80000000	-0.0
2	0x00000000	0.0
3	0x00000000	0.0
4	0x80000000	-0.0
5	0x00000000	0.0
6	0x80000000	-0.0
7	0x80000000	-0.0
8	0x80000000	-0.0
9	0x80000000	-0.0
10	0x00000000	0.0
11	0x00000000	0.0
12	0x80000000	-0.0
13	0x80000000	-0.0
14	0x00000000	0.0
15	0x00000000	0.0
16	0x00000000	0.0
17	0x80000000	-0.0
18	0x80000000	-0.0
19	0x80000000	-0.0
20	0x00000000	0.0
21	0x80000000	-0.0
22	0x00000000	0.0
23	0x00000000	0.0
24	0x80000000	-0.0
25	0x80000000	-0.0
26	0x80000000	-0.0
27	0xb80d82fc	-3.373901e-05
28	0x38645f76	5.444834e-05
29	0xb97c36c7	-0.00024052999
30	0x39a11bbd	0.0003072898
31	0x3a1e2f43	0.0006034264
32	0x3817ef92	3.6224323e-05
33	0xb9b8b23f	-0.00035228019
34	0xb90c97fe	-0.00013408062
35	0xb919fb5f	-0.0001468486
36	0x3903d776	0.00012573399
37	0x396409bb	0.000217474
38	0xb9b3864e	-0.00034241605
39	0x3a38400e	0.0007028588
40	0x3ab605f3	0.0013887271
41	0x394aac4d	0.00019328408
42	0xba3e5da7	-0.000726188
43	0xba530555	-0.0008049806
44	0xb9515e73	-0.00019966978
45	0x38c8bc30	9.571796e-05
46	0x38e4375d	0.000108821994
47	0xb99399e2	-0.00028152677
48	0x39c14463	0.0003686278
49	0x3a17f6b4	0.00057969545
50	0x38a429fe	7.827951e-05
51	0xba007c3c	-0.0004901325
52	0xb9b2d6f2	-0.00034110952
53	0xb9ae6aee	-0.00033267535
54	0xb8e14eeb	-0.00010743536
55	0x39049924	0.0001264555
56	0x36d35d65	6.2991626e-06
57	0xb9b6e485	-0.00034884005
58	0x3a212f50	0.0006148713
59	0xb8fc4e11	-0.000120308374
60	0xb9d029a2	-0.0003970387
61	0x3a199e4f	0.00058600766
62	0xb9425c54	-0.00018535677
63	0xb928df8e	-0.00016105009
64	0x391cba38	0.00014946691
65	0xb890744e	-6.8881185e-05
66	0xba332c72	-0.0006834931
67	0x3a8185d1	0.0009881799
68	0xb9ac9ef1	-0.00032924817
69	0xba3b1a77	-0.00071374275
70	0x3a75d6d7	0.0009378022
71	0xb9c8eac0	-0.00038321875
72	0xb7c228f3	-2.314567e-05
73	0x38e75fa9	0.000110327564
74	0x387b09f2	5.9852326e-05
75	0xb933ac73	-0.00017135013
76	0x39e2409c	0.00043154217
77	0x36c52879	5.875769e-06
78	0xb8f40f07	-0.00011637626
79	0x39baf746	0.00035660918
80	0xb8820c65	-6.201192e-05
81	0x39887e03	0.00026033827
82	0x38a3cd33	7.810667e-05
83	0xb93623e7	-0.00017370247
84	0x3acb8cb7	0.0015529607
85	0x3a721da0	0.0009235982
86	0xbb0213f8	-0.0019848328
87	0x3a459e80	0.0007538572
88	0x3a3bd675	0.00071654405
89	0xba851a8c	-0.0010155006
90	0x3a4c4b71	0.0007793224
91	0x39017b8b	0.00012348422
92	0xba30cca8	-0.00067443633
93	0x3af71115	0.0018849695
94	0x3b2cd5ee	0.002637263
95	0xbb957c7f	-0.00456196
96	0x3a73416c	0.0009279463
97	0x3b2efe9a	0.0026702047
98	0xbb68c686	-0.003551872
99	0x39dcdec4	0.00042127643
100	0x399b3323	0.00029602004
101	0xbac63d12	-0.0015124402
102	0x3ada1a55	0.0016639928
103	0x3a339083	0.0006849842
104	0xbb2b54eb	-0.0026143144
105	0x3a85de7a	0.0010213398
106	0x3977c16b	0.0002362781
107	0xbae84d5c	-0.001772325
108	0xb6bfbda1	-5.7143193e-06
109	0xb8b1075b	-8.441388e-05
110	0xb8a9da18	-8.099171e-05
111	0x38ed9a34	0.00011329763
112	0xb8a35f3a	-7.790183e-05
113	0xb92db2c4	-0.00016565161
114	0x39119f41	0.00013887604
115	0x360f7d3a	2.1381552e-06
116	0xb968e705	-0.00022211306
117	0x38d4dcf6	0.00010150105
118	0xb82b4c2d	-4.084052e-05
119	0xb92fadc2	-0.0001675403
120	0x398019e4	0.00024433353
121	0xb996fdb2	-0.00028799247
122	0xba1127bc	-0.0005537232
123	0x39977d01	0.000288941
124	0xb8e018eb	-0.00010685794
125	0xba027b81	-0.000497751
126	0x3825f491	3.9566836e-05
127	0xb95404ae	-0.00020219639
128	0xb99c6e10	-0.00029836642
129	0x38a49841	7.848489e-05
130	0xb9b3f18f	-0.00034321516
131	0xba069335	-0.000513363
132	0x37b73de6	2.1844124e-05
133	0xb839cdaa	-4.4298977e-05
134	0xb9890251	-0.00026132402
135	0x399cd456	0.0002991284
136	0x39e44b26	0.0004354354
137	0xb98d61a0	-0.00026966352
138	0x390e4bd9	0.00013570431
139	0x3a94ba51	0.001134703
140	0x3a1afe88	0.0005912562
141	0xb9e000a5	-0.0004272509
142	0x3a5fc583	0.00085362064
143	0x3a92cbd4	0.0011199662
144	0x39ab4b44	0.0003267174
145	0x385aa059	5.2124586e-05
146	0x38c12dab	9.2114635e-05
147	0x398c0f8a	0.00026714458
148	0xb9342c42	-0.00017182625
149	0xb8690f64	-5.5565863e-05
150	0x397176f7	0.00023027869
151	0xb90e35e2	-0.00013562248
152	0x3794809f	1.7702869e-05
153	0xb9eaca27	-0.00044782573
154	0xb98c40fb	-0.00026751295
155	0x34ed1f2c	4.416737e-07
156	0xb9bc5c79	-0.00035927052
157	0xba7d75d3	-0.0009668741
158	0xba284de3	-0.00064202974
159	0x390f4f6c	0.0001366713
160	0xba577757	-0.0008219382
161	0xba8489d9	-0.0010111883
162	0x39a16f7f	0.00030791384
163	0x392549a7	0.00015763064
164	0x383a9171	4.448131e-05
165	0x3a39a9e6	0.0007082507
166	0x395e35c2	0.00021191596
167	0x371ea79a	9.456557e-06
168	0x390d0ca6	0.0001345152
169	0xb8a6f3a8	-7.960881e-05
170	0xb79e2487	-1.8852077e-05
171	0x37e1d71c	2.6922258e-05
172	0xb73bf1f8	-1.1202406e-05
173	0x36b5e024	5.4203138e-06
174	0x3a5e2b77	0.00084751047
175	0xb42ca847	-1.6079967e-07
176	0xb94dbb7c	-0.00019620167
177	0x3969276b	0.00022235296
178	0xb937681c	-0.00017491024
179	0x38fbf5bf	0.000120143864
180	0xb7438815	-1.165459e-05
181	0x37815114	1.5415753e-05
182	0x37e4771e	2.7235186e-05
183	0x39470c4e	0.00018982703
184	0x380f478a	3.4160483e-05
185	0x38b7bab5	8.760897e-05
186	0xb93d0a74	-0.00018028339
187	0xb9228387	-0.00015498522
188	0x3886c57a	6.426401e-05
189	0x37f838f9	2.9590434e-05
190	0xb80b8d2e	-3.3271666e-05
191	0xb8f0f1ad	-0.000114891074
192	0xb664fe16	-3.4122545e-06
193	0x392affc8	0.0001630775
194	0x392c41e6	0.00016427747
195	0x383ed31a	4.5496134e-05
196	0x3862760f	5.399255e-05
197	0x39abb61b	0.0003275134
198	0xb854f82e	-5.0775874e-05
199	0x368f6629	4.273625e-06
200	0xb9177e94	-0.00014447636
201	0xb84182cc	-4.61366e-05
202	0x3970bd17	0.00022958625
203	0x39c4d1a9	0.00037540242
204	0xb80433be	-3.151944e-05
205	0x39097d54	0.00013112026
206	0x39c7ab50	0.00038083876
207	0xb6a3220d	-4.8617426e-06
208	0x39bdd868	0.00036210124
209	0x39d10b20	0.00039871875
210	0x3795af21	1.7843735e-05
211	0x3a10514a	0.0005505277
212	0x3a2e9d17	0.00066609815
213	0xb84703bf	-4.7448786e-05
214	0x3989ca42	0.0002628137
215	0x39c83ee1	0.0003819382
216	0x391e209c	0.00015080202
217	0x3923ff18	0.00015639921
218	0xb97bfdf3	-0.00024031829
219	0x388e3c63	6.7823355e-05
220	0x3a3745d6	0.00069913024
221	0xba490878	-0.00076688034
222	0x38ef14bc	0.0001140027
223	0x3a15aa01	0.00057092315
224	0xba3efeaa	-0.00072858727
225	0x387eb2a5	6.0724695e-05
226	0x39aa695d	0.00032503429
227	0xb9a5006a	-0.0003147156
228	0x38f3a65b	0.00011618129
229	0x3a940334	0.0011292459
230	0xbaa250b1	-0.0012383667
231	0x3859fc22	5.197165e-05
232	0x3a7835ec	0.0009468484
233	0xba897543	-0.0010487217
234	0x384236c8	4.6304223e-05
235	0x39239f0a	0.00015604138
236	0xb79c8623	-1.8659111e-05
237	0xb75a7830	-1.3021796e-05
238	0x3a011ad2	0.0004924956
239	0xba11bcb8	-0.00055594323
240	0xb83d4e7d	-4.513421e-05
241	0x39be050a	0.00036243378
242	0xb9f54dbd	-0.0004678796
243	0x3996a5c5	0.00028733737
244	0x396a36be	0.00022336372
245	0x3945594d	0.00018820651
246	0x39ae813b	0.0003328415
247	0x39819af4	0.00024720246
248	0x39220829	0.00015452564
249	0x399098ba	0.0002757961
250	0x398036dc	0.00024454936
251	0x387723d2	5.892275e-05
252	0xb78a391d	-1.6477477e-05
253	0xb86ba73f	-5.6184126e-05
254	0xb79f2506	-1.8971517e-05
255	0x3809baa9	3.2837186e-05

onnx::Conv_373 f4 [16]
0	0x80008f8a	-5.1492e-41
1	0x3f01ad34	0.5065491
2	0x3eca0dc2	0.3946362
3	0x3e8b5cb6	0.2721917
4	0x3f8efe88	1.1171427
5	0x3f1b78ff	0.607315
6	0x3e2dd7cd	0.16976853
7	0x3da453c8	0.080237925
8	0x3f02a59d	0.51033956
9	0x3e81df41	0.25365642
10	0xbe5fbfb5	-0.21850474
11	0x3f48c25d	0.78421575
12	0x3ecc6f61	0.39928725
13	0xbf125fa9	-0.57177216
14	0x000032de	1.8248e-41
15	0x0000ce15	7.3928e-41

onnx::Conv_375 f4 [16, 1, 3, 3]
0	0x80000000	-0.0
1	0x80000000	-0.0
2	0x80000000	-0.0
3	0x00000000	0.0
4	0x00000000	0.0
5	0x80000000	-0.0
6	0x00000000	0.0
7	0x00000000	0.0
8	0x80000000	-0.0
9	0xbebddb6a	-0.37081462
10	0xbf7f56b1	-0.99741656
11	0xbda53a62	-0.08067776
12	0x3e9eff20	0.3105402
13	0xbf0c4136	-0.54787004
14	0x40a783c5	5.234835
15	0x3f03e761	0.5152493
16	0x3f19c0b1	0.6005965
17	0xc0a3a30d	-5.1136537
18	0xbeb183e3	-0.34670934
19	0xc01419ad	-2.3140671
20	0x3fb6c15a	1.4277756
21	0xbf53dc76	-0.8275827
22	0xc08265ad	-4.0749116
23	0x41123b3d	9.139462
24	0xbc3ffca4	-0.011717949
25	0xbf8ad897	-1.0847348
26	0xbb209789	-0.0024504384
27	0xbbae6a6b	-0.0053227446
28	0x3ea4311d	0.3206872
29	0xbf0dccd3	-0.5539066
30	0x3e8f1e9f	0.2795305
31	0x3ffddab9	1.9832374
32	0xbfc676e5	-1.5505034
33	0xbdb8d5a5	-0.090251245
34	0x3d164dbd	0.03669523
35	0xbeb5c155	-0.35499063
36	0x3fdb71be	1.7144086
37	0x40b633e9	5.6938367
38	0x3fa9e722	1.3273661
39	0x3f2a6104	0.66554284
40	0x3f9c4812	1.2209494
41	0x3f1aa6c0	0.6041069
42	0xc01ede04	-2.4823008
43	0xc0cd53cb	-6.4164786
44	0xc00ac069	-2.1679938
45	0xbec54d12	-0.38535362
46	0x3e1e39bc	0.15451711
47	0xbed31bef	-0.4123225
48	0x3ebbfdef	0.36717173
49	0x3f68f550	0.9099932
50	0xc0565114	-3.3486986
51	0x3e802b9d	0.25033274
52	0x40294de3	2.6453788
53	0x3efb6dd4	0.4910723
54	0xbf1a1343	-0.6018564
55	0x3f21f3e0	0.6326275
56	0x3de06bca	0.10958059
57	0xbef81292	-0.48451668
58	0x3ec043b9	0.37551668
59	0xc0802503	-4.004518
60	0xbea4662b	-0.32109198
61	0x3e3bdd57	0.18346153
62	0x40b9725e	5.795211
63	0xbf554641	-0.83310324
64	0xbefa6ab2	-0.48909527
65	0x3f9fe4ea	1.2491734
66	0xc0853b54	-4.163492
67	0xbf19acb7	-0.60029167
68	0x4093dfcc	4.621069
69	0xbf3cd527	-0.73762745
70	0xbe71ca8a	-0.23612419
71	0x3f91191a	1.1335785
72	0x3ea27b60	0.31734753
73	0xbd23d504	-0.03999807
74	0x3da4a439	0.080391355
75	0x3effb9ed	0.49946538
76	0xc0c1042d	-6.0317597
77	0x4050f6fe	3.2650752
78	0x3e6ec73e	0.23318192
79	0x3edc3b92	0.430142
80	0x3e6af44b	0.22944753
81	0xc00cce11	-2.2000773
82	0xbf6fb640	-0.93637466
83	0xbfa23eb5	-1.2675387
84	0xbfbd60bc	-1.4795146
85	0x3fe96417	1.823367
86	0x3fd3ce53	1.654734
87	0xbf6c8ed9	-0.9240547
88	0x40843ee7	4.1326785
89	0x3fdee9b0	1.7415066
90	0x3f9c56d6	1.2214
91	0xbe4f2697	-0.20229565
92	0xc049a145	-3.150468
93	0xbe833aaf	-0.2563071
94	0x3fbb507e	1.4633939
95	0x3f90c778	1.1310873
96	0xbfc320de	-1.5244405
97	0x40079094	2.1181993
98	0x3f9162e8	1.1358309
99	0x3f154c33	0.58319396
100	0x40c6cf56	6.2128096
101	0x407f8772	3.992642
102	0x3e9a4073	0.30127296
103	0x3e65f506	0.2245675
104	0xbebbee0e	-0.3670506
105	0xbf9446f2	-1.1584151
106	0xc0c7a968	-6.2394295
107	0xc06fd64a	-3.7474542
108	0x3d907b26	0.07054739
109	0x3dc9fea8	0.09863025
110	0xbcb20f83	-0.021735912
111	0x3d1d4c35	0.038402755
112	0xbc0e0e73	-0.008670437
113	0xc054595f	-3.3179548
114	0x3d03f368	0.032214552
115	0x3e390477	0.1806811
116	0x4031d306	2.7785048
117	0x3a9aa2cc	0.0011797785
118	0x3f0bf8a9	0.546763
119	0xbf044373	-0.5166542
120	0x3e81fc53	0.2538782
121	0x3ed07093	0.40710887
122	0xbdb32d49	-0.08748872
123	0xbe5d190c	-0.21591586
124	0xbd9a4794	-0.07533184
125	0x3ff88434	1.9415345
126	0x80000000	-0.0
127	0x00000000	0.0
128	0x00000000	0.0
129	0x00000000	0.0
130	0x80000000	-0.0
131	0x00000000	0.0
132	0x80000000	-0.0
133	0x00000000	0.0
134	0x80000000	-0.0
135	0x00000000	0.0
136	0x00000000	0.0
137	0x00000000	0.0
138	0x80000000	-0.0
139	0x80000000	-0.0
140	0x80000000	-0.0
141	0x80000000	-0.0
142	0x80000000	-0.0
143	0x80000000	-0.0

onnx::Conv_376 f4 [16]
0	0x8028de25	-3.75311e-39
1	0x3f2a0a0c	0.6642158
2	0x3e9cff3a	0.30663472
3	0x3e6bf747	0.23043548
4	0x3d657c30	0.056026638
5	0x3ed578c4	0.416937
6	0xbc952140	-0.018204331
7	0x3f08756b	0.53304166
8	0x3f677332	0.9041015
9	0xbe2dcbf4	-0.16972333
10	0xbd8e1c00	-0.06938934
11	0x3e7473b7	0.23872267
12	0x3f43692a	0.7633234
13	0xbec89c52	-0.39181763
14	0x80b60277	-1.6714945e-38
15	0x80583c13	-8.103074e-39

onnx::Conv_378 f4 [8, 16, 1, 1]
0	0x8000c98e	-7.2304e-41
1	0xbea3ff8d	-0.32030907
2	0x3bc14edb	0.005899293
3	0x3ec6904e	0.3878197
4	0xbe1eace5	-0.15495642
5	0x3f21002b	0.6289088
6	0x3f050cbb	0.5197255
7	0xbe0ed769	-0.1394936
8	0xbe3e8834	-0.18606645
9	0x3e6ca4cb	0.23109739
10	0x3dc3cc09	0.09560401
11	0x3e995cf8	0.29953742
12	0x3dc5e703	0.096632026
13	0x3e71c2db	0.23609488
14	0x03933930	8.653013e-37
15	0x00003e4e	2.2351e-41
16	0x00011166	9.8077e-41
17	0xbe1d6e3c	-0.15374082
18	0xbf498d6d	-0.78731424
19	0x3c9dc880	0.019260645
20	0x3e5db55f	0.21651219
21	0x3d6248d6	0.055245243
22	0xbd6bbc71	-0.05755276
23	0x3b8236c9	0.003973816
24	0xbe491661	-0.19637443
25	0xbb85a69f	-0.0040787007
26	0xbc878a1d	-0.01654535
27	0x3db0b317	0.08627909
28	0xbecf8073	-0.40527686
29	0xbc8be2d0	-0.017075926
30	0x849b2751	-3.647643e-36
31	0x8000a607	-5.956e-41
32	0x80007819	-4.3083e-41
33	0x3e864bb5	0.26229635
34	0x3e91971b	0.28435597
35	0x3f21fb96	0.63274515
36	0xbe89d641	-0.26921275
37	0xbe42d372	-0.19025972
38	0xbec6e103	-0.38843545
39	0x3e0851cf	0.13312458
40	0xbeb51a75	-0.35371748
41	0x3eb81f02	0.35961157
42	0xbe1b31ee	-0.15155765
43	0x3f19c217	0.6006178
44	0x3d8376c7	0.06419139
45	0x3d8cb3ba	0.068702176
46	0x80005df4	-3.3704e-41
47	0x000108bc	9.4969e-41
48	0x000014ba	7.435e-42
49	0xbe5e7530	-0.21724391
50	0xbe25611f	-0.1615033
51	0x3d115d5b	0.03548942
52	0x3efb8899	0.49127653
53	0xbeaa3cf0	-0.33249617
54	0x3d61baf2	0.055109926
55	0xbdd08616	-0.10181825
56	0xbd8265ce	-0.06367074
57	0x3eb7aba5	0.35873142
58	0x3dd156cc	0.10221633
59	0xbe8e3a2a	-0.2777875
60	0x3eec4cf7	0.4615247
61	0x3e53d91b	0.20688288
62	0x8474674b	-2.8729492e-36
63	0x8000323b	-1.8019e-41
64	0x82e56a0a	-3.370939e-37
65	0xbe830069	-0.2558625
66	0x3ea7625e	0.32692236
67	0x3ce40f00	0.027839184
68	0x3eb56c3d	0.35434142
69	0xbf4dc182	-0.80373394
70	0x3deb9085	0.11502174
71	0xbe934b00	-0.28768158
72	0x3e1e67a0	0.15469217
73	0xbcc8a766	-0.024493884
74	0xbd56e4c7	-0.052464273
75	0xbc1c6c2e	-0.009547276
76	0xbe9f8104	-0.3115312
77	0x3a582fc2	0.00082468626
78	0x8355ce2e	-6.2831757e-37
79	0x0000e541	8.2241e-41
80	0x000080db	4.6225e-41
81	0xbdb1f9f5	-0.08690254
82	0xbd697cd8	-0.057003826
83	0xbf05e48a	-0.5230185
84	0xbe96bd02	-0.29441077
85	0xbe53feca	-0.20702663
86	0x3e13e3d0	0.14442372
87	0x3f198f60	0.599844
88	0x3f0dc9f8	0.55386305
89	0x3ea104e2	0.31449038
90	0x3e15cebb	0.14629643
91	0x3ee70586	0.45121402
92	0x3dfac532	0.12244643
93	0x3de3bc2d	0.11119876
94	0x039cc871	9.214875e-37
95	0x81c1561f	-7.102058e-38
96	0x00005267	2.956e-41
97	0x3eaec4a2	0.34134394
98	0xbddfdc01	-0.10930634
99	0xbeeed81c	-0.46649253
100	0xbeb3aadc	-0.35091293
101	0x3d4df9c1	0.050287012
102	0xbd2c243b	-0.04202674
103	0xbf41885f	-0.7559871
104	0x3df11e99	0.11773414
105	0x3e822bca	0.25424033
106	0x3dfc0645	0.12305883
107	0x3e96c9c2	0.29450804
108	0xbc2bc3c7	-0.010483689
109	0x3e253392	0.16132954
110	0x80000b3b	-4.029e-42
111	0x00009d7a	5.6492e-41
112	0x8000e881	-8.3407e-41
113	0x3e07791e	0.13229796
114	0x3e9d3fa1	0.30712608
115	0x3c56f21d	0.013119248
116	0x3f1191d7	0.5686316
117	0x3f227a96	0.634683
118	0xbd90e1c2	-0.0707431
119	0x3e5408ee	0.20706531
120	0x3dfdb94e	0.1238886
121	0x3ef1c750	0.47222376
122	0x3db6a066	0.08917312
123	0xbf0a6e54	-0.540746
124	0xbe92aced	-0.28647557
125	0x3e3009fb	0.17191307
126	0x83cda1e7	-1.2085988e-36
127	0x0000aa54	6.1102e-41

onnx::Conv_379 f4 [8]
0	0xbf4f849a	-0.8106171
1	0x3fa3b081	1.278824
2	0xbeb57967	-0.35444185
3	0xbc3a91f1	-0.011387334
4	0x3f042b77	0.5162882
5	0xbecdb9a1	-0.40180686
6	0x3f05dcfd	0.52290326
7	0xbf8c23df	-1.0948447

onnx::Conv_381 f4 [48, 8, 1, 1]
0	0x3d1ce37c	0.038302884
1	0x3d1e629e	0.038668267
2	0x3e29d569	0.16585316
3	0xbf01ae9a	-0.50657046
4	0xbd0834ad	-0.03325336
5	0x3d9b8905	0.07594494
6	0x3e5674a1	0.20942928
7	0xbd24ef52	-0.040267296
8	0x3e25107b	0.16119568
9	0x3d974f1c	0.07388136
10	0x3e5850cd	0.21124573
11	0xbd04a50b	-0.03238396
12	0xbd431dc0	-0.047635794
13	0xbed6805f	-0.41894814
14	0xbe12bf03	-0.14330678
15	0xbdb55871	-0.088547595
16	0xbc560be3	-0.013064357
17	0x3c289e96	0.010291716
18	0xbda3548c	-0.079751104
19	0x3dbe2ba2	0.09285666
20	0xbb1a35b1	-0.0023530538
21	0xbc87970d	-0.016551519
22	0xbd626f94	-0.05528219
23	0x3e03aebe	0.12859628
24	0xbe83cdf6	-0.25743073
25	0x3d190d66	0.037366293
26	0x3e1a130e	0.15046331
27	0xbe68cf68	-0.22735369
28	0xbabcfef8	-0.0014419248
29	0xbde3af00	-0.11117363
30	0xbe854273	-0.2602726
31	0xbe9f2810	-0.31085253
32	0x3d7bc296	0.06146487
33	0xbd01cbd2	-0.03168852
34	0x3de136ab	0.10996755
35	0xbe73431d	-0.2375607
36	0xbd0f2492	-0.034946986
37	0x3d828f51	0.06374992
38	0x3d8d855e	0.069102034
39	0xbe69f38a	-0.22846809
40	0xbd51f356	-0.051257454
41	0xbdc8d23d	-0.09805725
42	0x3e054a9e	0.13016745
43	0xbe087eea	-0.13329664
44	0xbe7929ec	-0.24332398
45	0x3d7bd989	0.061486755
46	0x3e2ef90c	0.17087191
47	0xbdbbcf78	-0.09170431
48	0xbbd2aa87	-0.00642902
49	0x3ec88344	0.39162648
50	0x3d1bf858	0.038078636
51	0x3d86cc34	0.065819174
52	0xbe4305f1	-0.19045235
53	0xbe5704ae	-0.20997879
54	0xbe20ab36	-0.15690312
55	0xbe21b4a0	-0.15791559
56	0x3a6a1f88	0.000893109
57	0x3c007c30	0.007842109
58	0xbc1dd0d7	-0.009632311
59	0xbc3a70cd	-0.011379433
60	0x3c4e0632	0.012574719
61	0x3bb539dc	0.005530579
62	0xbcd24dab	-0.0256718
63	0x3cba3e90	0.02273491
64	0xbe28b4a0	-0.16475153
65	0x3cc9ee68	0.024649814
66	0x3ef46451	0.47732785
67	0xbd328ca8	-0.04359117
68	0xbdfddbee	-0.12395464
69	0x3d7d7f20	0.061888814
70	0xbde5e0b3	-0.112244986
71	0x3ccbafcd	0.024864102
72	0xbc5c53a2	-0.013447674
73	0x3db7687c	0.08955476
74	0xbd7b035a	-0.061282493
75	0x3ccae6bd	0.024768228
76	0xbd6892a5	-0.056780476
77	0xba4fd066	-0.0007927477
78	0x3d18f606	0.037344
79	0xbd29eea4	-0.04148735
80	0x3cac3d08	0.021025196
81	0x3d992c6e	0.074791774
82	0x3cb9e976	0.02269433
83	0xbf11d195	-0.5696042
84	0x3cc1a23a	0.023636926
85	0x3c8b31e1	0.016991558
86	0x3d02d2bb	0.03193925
87	0xbba59e69	-0.0050542844
88	0xbe1f5f84	-0.1556378
89	0x3da999cc	0.082812876
90	0xbea2afe9	-0.31774834
91	0x3e722033	0.23645096
92	0x3e0d7405	0.13813789
93	0xbe867cd3	-0.26267108
94	0xbe4e9bc1	-0.20176603
95	0x3ea9c3e7	0.33157274
96	0x3c1c11d0	0.009525731
97	0x3dbff926	0.09373693
98	0xbd3b8b64	-0.04578723
99	0x3c27d19b	0.010242845
100	0xbc711b48	-0.014715977
101	0x3ae386b3	0.0017358869
102	0x3c9e3951	0.01931444
103	0x3af07419	0.0018345147
104	0x3ddb6e65	0.107144155
105	0xbdd1c3a0	-0.10242391
106	0xbd6973ff	-0.056995388
107	0xbd46c0d5	-0.048523743
108	0xbddf9076	-0.109162256
109	0x3d4f0fac	0.050552055
110	0x3d4e8a8e	0.050425105
111	0x3d8ab952	0.06773628
112	0x3e3c3363	0.18378977
113	0xbe2be8a7	-0.16787969
114	0xba82e8e3	-0.0009987619
115	0x3e124987	0.14285861
116	0xbd8351be	-0.064120755
117	0x3dc4bfb4	0.09606877
118	0x3ceebb8c	0.029142164
119	0xbe584c8d	-0.21122952
120	0x3d8302f3	0.06397047
121	0xbd5f9ca1	-0.054592732
122	0x3e4ae3c8	0.19813454
123	0x3ece0b1f	0.4024286
124	0xbe907e21	-0.2822123
125	0xbe553ba3	-0.20823531
126	0x3dac37a7	0.08409052
127	0xbe86b9fd	-0.26313773
128	0x3da945fa	0.082653
129	0x3dd0163e	0.10160492
130	0x3df5ea64	0.12007597
131	0x3e0dd96e	0.13852474
132	0x3e89fc61	0.26950362
133	0x3db8b000	0.09017944
134	0x3d4add80	0.049527645
135	0xbc3e6efc	-0.01162314
136	0x3d18e145	0.03732421
137	0xbc90099b	-0.017582705
138	0x3e193567	0.14961778
139	0xbe0c6f8f	-0.13714431
140	0xbd58659c	-0.052831277
141	0x3dd509b4	0.10402241
142	0x3da5c427	0.08094054
143	0xbe071dbf	-0.13194941
144	0xbe4dd6b0	-0.20101428
145	0x3d7477ff	0.05968475
146	0x3aa1b5d3	0.0012337513
147	0x3e19859a	0.14992371
148	0xbdae60a8	-0.085145295
149	0xbdc9cd76	-0.09853642
150	0xbe8b5a79	-0.27217463
151	0x3ecd94d3	0.40152606
152	0xbdbf5991	-0.09343255
153	0x3ce6642d	0.02812394
154	0xbe42623d	-0.18982787
155	0x3e6f5a6f	0.23374341
156	0x3d83e963	0.06440999
157	0xbe171be3	-0.14756732
158	0xbe1f14b4	-0.15535241
159	0x3e2e7b46	0.17039213
160	0x3bdde103	0.0067712083
161	0x3d982af4	0.07430068
162	0x3de7384f	0.11290037
163	0x3e25930d	0.16169377
164	0x3cace392	0.021104608
165	0x3d8ef5ce	0.06980477
166	0x3d8a0368	0.06738931
167	0x3ddb631c	0.10712263
168	0x3d657a60	0.05602491
169	0xbccb02be	-0.024781581
170	0x3c5b1ca2	0.013373526
171	0xbdf3cc89	-0.11904246
172	0x3cd6dd90	0.026228696
173	0x3d3d5d19	0.046231363
174	0xbe39785f	-0.18112324
175	0x3af26cf9	0.0018495611
176	0x3d33f340	0.043933153
177	0x3e1a33c7	0.15058814
178	0xbb2b2bcf	-0.0026118641
179	0x3d48ccd3	0.04902346
180	0xbd6057eb	-0.054771345
181	0xbd6b8bd8	-0.057506412
182	0x3c31d416	0.010853788
183	0xbd9adf52	-0.07562126
184	0x3da40c2d	0.08010135
185	0x3d052d4a	0.032513894
186	0x3d3e8836	0.04651662
187	0x3c6d0040	0.014465392
188	0x3cf3e888	0.029773965
189	0xbd112b34	-0.035441592
190	0xbc64703a	-0.0139427725
191	0xbd41fbb3	-0.04735918
192	0xbdfa8a89	-0.12233455
193	0xbddcf67c	-0.10789201
194	0x3da2048c	0.079110235
195	0x3d2376ce	0.039908223
196	0xbe1b8580	-0.15187645
197	0xbb618fce	-0.003441799
198	0x3dcdef4f	0.1005541
199	0xbd72ce23	-0.05927862
200	0xbd800855	-0.06251589
201	0x3c627838	0.013822608
202	0xbd8fd9cd	-0.07023964
203	0x3df210e7	0.1181963
204	0x3cac534a	0.02103581
205	0xbd04721d	-0.03233539
206	0xbd4738f2	-0.04863829
207	0x3e0c88bc	0.13724035
208	0xbe0a8aa9	-0.13529457
209	0x3c4c49f5	0.012468805
210	0x3e06baf3	0.13157253
211	0xbd12be55	-0.035826046
212	0xbda82174	-0.08209506
213	0xbc420396	-0.011841675
214	0x3dee475e	0.11634706
215	0x3d3224dd	0.043492187
216	0xbe93de27	-0.28880426
217	0x3edabc6a	0.42721874
218	0xbeaad708	-0.3336718
219	0x3e4af00b	0.19818132
220	0xbe3942ff	-0.18091963
221	0x3e80954b	0.25113901
222	0x3ec4db5d	0.3844861
223	0xbd12c286	-0.035830043
224	0x3da28a1f	0.07936501
225	0xbcfeb19e	-0.031090554
226	0xbd534143	-0.05157591
227	0x399bf327	0.00029745066
228	0xbcc0a9f4	-0.02351854
229	0xbd12ca42	-0.03583742
230	0xbc29241a	-0.010323549
231	0x3d368d45	0.04456832
232	0x3dc6338d	0.09677801
233	0x3d08ec4f	0.033428486
234	0x3da900e5	0.08252124
235	0x3ce5058e	0.02795675
236	0x3d4cb39c	0.049975976
237	0xbd356d5c	-0.044293746
238	0xbd1e2947	-0.038613584
239	0x3b900676	0.0043953015
240	0xbe898087	-0.2685587
241	0xbd120f2c	-0.035659
242	0xbe9de589	-0.30839184
243	0xbdc95935	-0.09831468
244	0xbcad587d	-0.021160359
245	0x3f05f240	0.5232277
246	0x3e11ecb0	0.14250445
247	0x3e189632	0.14901045
248	0x3e4b0421	0.19825794
249	0xbd1f7b04	-0.038935676
250	0xbde45cf0	-0.11150539
251	0xbddc61d5	-0.107608475
252	0xbe3ff69e	-0.1874642
253	0xbd4847a8	-0.04889646
254	0x3cc2ec6e	0.02379438
255	0x3dc6c87d	0.09706209

onnx::Conv_382 f4 [48]
0	0xbc195364	-0.009358261
1	0x3c9ab991	0.018887313
2	0x3e2b142f	0.16706918
3	0x3e926027	0.28588983
4	0x3e318694	0.17336494
5	0x3dcfa981	0.10139752
6	0xbcda9414	-0.026681937
7	0x3ddee3f3	0.108833216
8	0x3d96ee72	0.073696986
9	0x3e7bcca8	0.24589789
10	0xbd92edf5	-0.07174293
11	0x3cb82117	0.022476716
12	0x3e78811a	0.24267998
13	0x3e47fa96	0.19529185
14	0x3e298022	0.16552785
15	0x3bf6f31b	0.0075363046
16	0xbe0fa7cb	-0.14028852
17	0x3e39d6ed	0.18148394
18	0x3d8a0030	0.06738317
19	0x3e85b45d	0.2611417
20	0x3eace110	0.3376546
21	0x3e3c6417	0.18397556
22	0x3e80f62f	0.25187823
23	0x3e31375e	0.17306277
24	0x3e2f67f2	0.17129496
25	0x3d6ed37c	0.058307156
26	0x3e46bcfc	0.1940803
27	0xbe02df6c	-0.12780541
28	0x3e8921c4	0.26783574
29	0x3e5ade6e	0.21373913
30	0xbd0e34a0	-0.034718156
31	0x3de4aa23	0.111652635
32	0x3e16d017	0.14727817
33	0x3d2a1d53	0.041531872
34	0x3de00b63	0.10939672
35	0x3e258b56	0.16166434
36	0xbcbabcbe	-0.022795077
37	0x3e9cddd5	0.30637994
38	0x3e36a021	0.17834522
39	0x3d86a000	0.06573486
40	0x3cc7f761	0.024409952
41	0xbd22b82f	-0.039726432
42	0x3e6f3723	0.23360877
43	0x3dc0cf7e	0.09414576
44	0x3e4ae17b	0.19812576
45	0xbd53aa61	-0.051676158
46	0x3e2ddbe4	0.16978413
47	0x3d9df2f9	0.07712359
